…
[*] Loaded dataset 'Large-LI' from 'AML':
  HeteroData(
  node={
    x=[2070980, 1],
    num_nodes=2070980,
  },
  (node, to, node)={
    edge_index=[2, 106141635],
    edge_attr=[106141635, 6],
    y=[106141635],
    timestamps=[106141635],
    split_mask=[106141635],
  }
)
  num graphs: 3
  avg num_nodes/graph: 690326
  num node features: {'node': 1}
  num edge features: {('node', 'to', 'node'): 6}
GTModel(
  (input_drop): Dropout(p=0.0, inplace=False)
  (activation): GELU(approximate='none')
  (encoder): FeatureEncoder(
    (node_encoder): HeteroRawNodeEncoder(
      (linear): ModuleDict(
        (node): Linear(in_features=2, out_features=64, bias=True)
      )
      (encoder): ModuleDict()
    )
    (edge_encoder): HeteroRawEdgeEncoder(
      (linear): ModuleDict(
        (node__to__node): Linear(in_features=6, out_features=64, bias=True)
      )
    )
  )
  (convs): ModuleList(
    (0-1): 2 x GTLayer(
      (activation): GELU(approximate='none')
      (skip_local): ParameterDict(  (node): Parameter containing: [torch.cuda.FloatTensor of size 1 (cuda:0)])
      (skip_global): ParameterDict(  (node): Parameter containing: [torch.cuda.FloatTensor of size 1 (cuda:0)])
      (k_lin): ModuleDict(
        (node): Linear(64, 64, bias=True)
      )
      (q_lin): ModuleDict(
        (node): Linear(64, 64, bias=True)
      )
      (v_lin): ModuleDict(
        (node): Linear(64, 64, bias=True)
      )
      (e_lin): ModuleDict(
        (node__to__node): Linear(64, 64, bias=True)
      )
      (g_lin): ModuleDict(
        (node__to__node): Linear(64, 64, bias=True)
      )
      (oe_lin): ModuleDict(
        (node__to__node): Linear(64, 64, bias=True)
      )
      (o_lin): ModuleDict(
        (node): Linear(64, 64, bias=True)
      )
      (norm1_local): ModuleDict(
        (node): LayerNorm((64,), eps=1e-05, elementwise_affine=True)
      )
      (norm1_global): ModuleDict(
        (node): LayerNorm((64,), eps=1e-05, elementwise_affine=True)
      )
      (norm2_ffn): ModuleDict(
        (node): LayerNorm((64,), eps=1e-05, elementwise_affine=True)
      )
      (project): ModuleDict(
        (node): Linear(128, 64, bias=True)
      )
      (norm1_edge_local): ModuleDict(
        (node__to__node): LayerNorm((64,), eps=1e-05, elementwise_affine=True)
      )
      (norm1_edge_global): ModuleDict(
        (node__to__node): LayerNorm((64,), eps=1e-05, elementwise_affine=True)
      )
      (norm2_edge_ffn): ModuleDict()
      (dropout_local): Dropout(p=0.0, inplace=False)
      (dropout_global): Dropout(p=0.0, inplace=False)
      (dropout_attn): Dropout(p=0.2, inplace=False)
      (ff_linear1_type): ModuleDict(
        (node): Linear(in_features=64, out_features=128, bias=True)
      )
      (ff_linear2_type): ModuleDict(
        (node): Linear(in_features=128, out_features=64, bias=True)
      )
      (ff_linear1_edge_type): ModuleDict(
        (node__to__node): Linear(in_features=64, out_features=128, bias=True)
      )
      (ff_linear2_edge_type): ModuleDict(
        (node__to__node): Linear(in_features=128, out_features=64, bias=True)
      )
      (ff_dropout1): Dropout(p=0.0, inplace=False)
      (ff_dropout2): Dropout(p=0.0, inplace=False)
    )
  )
  (norms): ModuleList(
    (0-1): 2 x ModuleDict(
      (node): LayerNorm((64,), eps=1e-05, elementwise_affine=True)
    )
  )
  (post_gt): HeteroGNNEdgeHead(
    (layer_post_mp): MLP(
      (model): Sequential(
        (0): GeneralMultiLayer(
          (Layer_0): GeneralLayer(
            (layer): Linear(
              (model): Linear(in_features=192, out_features=192, bias=True)
            )
            (post_layer): Sequential(
              (0): ReLU()
            )
          )
        )
        (1): Linear(
          (model): Linear(in_features=192, out_features=1, bias=True)
        )
      )
    )
  )
)
bn:
  eps: 1e-05
  mom: 0.1
cfg_dest: config.yaml
custom_metrics: []
dataset:
  add_ports: True
  augment_feature: []
  augment_feature_dims: []
  augment_feature_repr: original
  augment_label: 
  augment_label_dims: 0
  cache_load: False
  cache_save: False
  dir: ./Data
  edge_dim: 128
  edge_encoder: True
  edge_encoder_bn: False
…
